…
)\n","Learning rate:  0.001\n","Model: \"model\"\n","__________________________________________________________________________________________________\n","Layer (type)                    Output Shape         Param #     Connected to                     \n","==================================================================================================\n","input_1 (InputLayer)            [(None, 32, 32, 1)]  0                                            \n","__________________________________________________________________________________________________\n","conv2d (Conv2D)                 (None, 32, 32, 16)   160         input_1[0][0]                    \n","__________________________________________________________________________________________________\n","batch_normalization (BatchNorma (None, 32, 32, 16)   64          conv2d[0][0]                     \n","__________________________________________________________________________________________________\n","activation (Activation)         (None, 32, 32, 16)   0           batch_normalization[0][0]        \n","__________________________________________________________________________________________________\n","conv2d_1 (Conv2D)               (None, 32, 32, 16)   2320        activation[0][0]                 \n","__________________________________________________________________________________________________\n","batch_normalization_1 (BatchNor (None, 32, 32, 16)   64          conv2d_1[0][0]                   \n","__________________________________________________________________________________________________\n","activation_1 (Activation)       (None, 32, 32, 16)   0           batch_normalization_1[0][0]      \n","__________________________________________________________________________________________________\n","conv2d_2 (Conv2D)               (None, 32, 32, 16)   2320        activation_1[0][0]               \n","__________________________________________________________________________________________________\n","batch_normalization_2 (BatchNor (None, 32, 32, 16)   64          conv2d_2[0][0]                   \n","__________________________________________________________________________________________________\n","add (Add)                       (None, 32, 32, 16)   0           activation[0][0]                 \n","                                                                 batch_normalization_2[0][0]      \n","__________________________________________________________________________________________________\n","activation_2 (Activation)       (None, 32, 32, 16)   0           add[0][0]                        \n","__________________________________________________________________________________________________\n","conv2d_3 (Conv2D)               (None, 16, 16, 32)   4640        activation_2[0][0]               \n","__________________________________________________________________________________________________\n","batch_normalization_3 (BatchNor (None, 16, 16, 32)   128         conv2d_3[0][0]                   \n","__________________________________________________________________________________________________\n","activation_3 (Activation)       (None, 16, 16, 32)   0           batch_normalization_3[0][0]      \n","__________________________________________________________________________________________________\n","conv2d_4 (Conv2D)               (None, 16, 16, 32)   9248        activation_3[0][0]               \n","__________________________________________________________________________________________________\n","conv2d_5 (Conv2D)               (None, 16, 16, 32)   544         activation_2[0][0]               \n","__________________________________________________________________________________________________\n","batch_normalization_4 (BatchNor (None, 16, 16, 32)   128         conv2d_4[0][0]                   \n","__________________________________________________________________________________________________\n","add_1 (Add)                     (None, 16, 16, 32)   0           conv2d_5[0][0]                   \n","                                                                 batch_normalization_4[0][0]      \n","__________________________________________________________________________________________________\n","activation_4 (Activation)       (None, 16, 16, 32)   0           add_1[0][0]                      \n","__________________________________________________________________________________________________\n","conv2d_6 (Conv2D)               (None, 8, 8, 64)     18496       activation_4[0][0]               \n","__________________________________________________________________________________________________\n","batch_normalization_5 (BatchNor (None, 8, 8, 64)     256         conv2d_6[0][0]                   \n","__________________________________________________________________________________________________\n","activation_5 (Activation)       (None, 8, 8, 64)     0           batch_normalization_5[0][0]      \n","__________________________________________________________________________________________________\n","conv2d_7 (Conv2D)               (None, 8, 8, 64)     36928       activation_5[0][0]               \n","__________________________________________________________________________________________________\n","conv2d_8 (Conv2D)               (None, 8, 8, 64)     2112        activation_4[0][0]               \n","__________________________________________________________________________________________________\n","batch_normalization_6 (BatchNor (None, 8, 8, 64)     256         conv2d_7[0][0]                   \n","__________________________________________________________________________________________________\n","add_2 (Add)                     (None, 8, 8, 64)     0           conv2d_8[0][0]                   \n","                                                                 batch_normalization_6[0][0]      \n","__________________________________________________________________________________________________\n","activation_6 (Activation)       (None, 8, 8, 64)     0           add_2[0][0]                      \n","__________________________________________________________________________________________________\n","average_pooling2d (AveragePooli (None, 1, 1, 64)     0           activation_6[0][0]               \n","__________________________________________________________________________________________________\n","flatten (Flatten)               (None, 64)           0           average_pooling2d[0][0]          \n","__________________________________________________________________________________________________\n","dense (Dense)                   (None, 2)            130         flatten[0][0]                    \n","==================================================================================================\n","Total params: 77,858\n","Trainable params: 77,378\n","Non-trainable params: 480\n","__________________________________________________________________________________________________\n"],"name":"stdout"},{"output_type":"stream","text":["/usr/local/li
…
