…
":["Learning rate:  0.001\n","Model: \"model_1\"\n","__________________________________________________________________________________________________\n","Layer (type)                    Output Shape         Param #     Connected to                     \n","==================================================================================================\n","input_2 (InputLayer)            [(None, 32, 32, 1)]  0                                            \n","__________________________________________________________________________________________________\n","conv2d_13 (Conv2D)              (None, 32, 32, 16)   160         input_2[0][0]                    \n","__________________________________________________________________________________________________\n","batch_normalization_10 (BatchNo (None, 32, 32, 16)   64          conv2d_13[0][0]                  \n","__________________________________________________________________________________________________\n","activation_10 (Activation)      (None, 32, 32, 16)   0           batch_normalization_10[0][0]     \n","__________________________________________________________________________________________________\n","conv2d_14 (Conv2D)              (None, 32, 32, 16)   272         activation_10[0][0]              \n","__________________________________________________________________________________________________\n","batch_normalization_11 (BatchNo (None, 32, 32, 16)   64          conv2d_14[0][0]                  \n","__________________________________________________________________________________________________\n","activation_11 (Activation)      (None, 32, 32, 16)   0           batch_normalization_11[0][0]     \n","__________________________________________________________________________________________________\n","conv2d_15 (Conv2D)              (None, 32, 32, 16)   2320        activation_11[0][0]              \n","__________________________________________________________________________________________________\n","batch_normalization_12 (BatchNo (None, 32, 32, 16)   64          conv2d_15[0][0]                  \n","__________________________________________________________________________________________________\n","activation_12 (Activation)      (None, 32, 32, 16)   0           batch_normalization_12[0][0]     \n","__________________________________________________________________________________________________\n","conv2d_17 (Conv2D)              (None, 32, 32, 64)   1088        activation_10[0][0]              \n","__________________________________________________________________________________________________\n","conv2d_16 (Conv2D)              (None, 32, 32, 64)   1088        activation_12[0][0]              \n","__________________________________________________________________________________________________\n","add_3 (Add)                     (None, 32, 32, 64)   0           conv2d_17[0][0]                  \n","                                                                 conv2d_16[0][0]                  \n","__________________________________________________________________________________________________\n","batch_normalization_13 (BatchNo (None, 32, 32, 64)   256         add_3[0][0]                      \n","__________________________________________________________________________________________________\n","activation_13 (Activation)      (None, 32, 32, 64)   0           batch_normalization_13[0][0]     \n","__________________________________________________________________________________________________\n","conv2d_18 (Conv2D)              (None, 16, 16, 64)   4160        activation_13[0][0]              \n","__________________________________________________________________________________________________\n","batch_normalization_14 (BatchNo (None, 16, 16, 64)   256         conv2d_18[0][0]                  \n","__________________________________________________________________________________________________\n","activation_14 (Activation)      (None, 16, 16, 64)   0           batch_normalization_14[0][0]     \n","__________________________________________________________________________________________________\n","conv2d_19 (Conv2D)              (None, 16, 16, 64)   36928       activation_14[0][0]              \n","__________________________________________________________________________________________________\n","batch_normalization_15 (BatchNo (None, 16, 16, 64)   256         conv2d_19[0][0]                  \n","__________________________________________________________________________________________________\n","activation_15 (Activation)      (None, 16, 16, 64)   0           batch_normalization_15[0][0]     \n","__________________________________________________________________________________________________\n","conv2d_21 (Conv2D)              (None, 16, 16, 128)  8320        add_3[0][0]                      \n","__________________________________________________________________________________________________\n","conv2d_20 (Conv2D)              (None, 16, 16, 128)  8320        activation_15[0][0]              \n","__________________________________________________________________________________________________\n","add_4 (Add)                     (None, 16, 16, 128)  0           conv2d_21[0][0]                  \n","                                                                 conv2d_20[0][0]                  \n","__________________________________________________________________________________________________\n","batch_normalization_16 (BatchNo (None, 16, 16, 128)  512         add_4[0][0]                      \n","__________________________________________________________________________________________________\n","activation_16 (Activation)      (None, 16, 16, 128)  0           batch_normalization_16[0][0]     \n","__________________________________________________________________________________________________\n","conv2d_22 (Conv2D)              (None, 8, 8, 128)    16512       activation_16[0][0]              \n","__________________________________________________________________________________________________\n","batch_normalization_17 (BatchNo (None, 8, 8, 128)    512         conv2d_22[0][0]                  \n","__________________________________________________________________________________________________\n","activation_17 (Activation)      (None, 8, 8, 128)    0           batch_normalization_17[0][0]     \n","__________________________________________________________________________________________________\n","conv2d_23 (Conv2D)              (None, 8, 8, 128)    147584      activation_17[0][0]              \n","__________________________________________________________________________________________________\n","batch_normalization_18 (BatchNo (None, 8, 8, 128)    512         conv2d_23[0][0]                  \n","__________________________________________________________________________________________________\n","activation_18 (Activation)      (None, 8, 8, 128)    0           batch_normalization_18[0][0]     \n","__________________________________________________________________________________________________\n","conv2d_25 (Conv2D)              (None, 8, 8, 256)    33024       add_4[0][0]                      \n","__________________________________________________________________________________________________\n","conv2d_24 (Conv2D)              (None, 8, 8, 256)    33024       activation_18[0][0]              \n","__________________________________________________________________________________________________\n","add_5 (Add)                     (None, 8, 8, 256)    0           conv2d_25[0][0]                  \n","                                                                 conv2d_24[0][0]                  \n","__________________________________________________________________________________________________\n","batch_normalization_19 (BatchNo (None, 8, 8, 256)    1024        add_5[0][0]                      \n","__________________________________________________________________________________________________\n","activation_19 (Activation)      (None, 8, 8, 256)    0           batch_normalization_19[0][0]     \n","__________________________________________________________________________________________________\n","average_pooling2d_1 (AveragePoo (None, 1, 1, 256)    0           activation_19[0][0]              \n","__________________________________________________________________________________________________\n","flatten_1 (Flatten)             (None, 256)          0           average_pooling2d_1[0][0]        \n","__________________________________________________________________________________________________\n","dense_1 (Dense)                 (None, 2)            514         flatten_1[0][0]                  \n","==================================================================================================\n","Total params: 296,834\n","Trainable params: 295,074\n","Non-trainable params: 1,760\n","__________________________________________________________________________________________________\n"],"name":"stdout"},{"output_type":"stream","text":["/usr/loca
…
